prover/onnx-tracer/models/authorization/network.onnx (onnx, 11433 bytes, 6 tensors)

fc1.weight f4 [32, 64]
00000000: 200b abbc 0662 aabd d9f7 a23d 35e6 943d
00000010: 5923 3f3d 817a ae3d 2c4f c63d 5aaa 5d3e
00000020: c788 7d3e e0ed aa3d 6d88 5f3e a7ac ffbd
00000030: 6afd 293e 8f06 2a3e a915 363e d71c 213d
00000040: 628a b13e f934 833e 6aa6 a5bd ffff 52bd
00000050: 2db5 c2bd 2b71 703d 6b14 a1bb 978e 893d
00000060: 3739 f8bd b0f5 a1bc 40c7 2fbd e420 b6bb
00000070: 226a d33d bdd2 a2bb daee 4a3e 23ea 603c
00000080: f526 8b3e 690f bc3d a78a 90bd c011 c03d
00000090: 0384 893c 6501 203e f2b2 fcbc 8dc2 843c
000000a0: 67fc 723d 2f44 e93c 5169 1b3e f70b 423e
000000b0: 16c6 2c3e aaa8 22bd 35d6 033e 124c f73d
000000c0: c8a1 053e 15ad f1bd a869 8cbd 5abc 17bd
000000d0: 2ef1 1ebc e3d6 a03d dcbc 453e 22bf df3d
000000e0: 0a3b e43d 2be3 753d e38d 063e 38e4 b5bd
000000f0: 5dc9 8a3d 6f90 99bd 4e3c c43d 7da9 c63d
00000100: b18b 733c b91b 3abe e2b1 0b3e d3d6 e339
00000110: cc7d 6cbd 1c71 b9bc 3811 213e b29d 733d
00000120: 78a8 3c3c e54c 90bc d39a 4dbe 88f3 843d
00000130: 73ed ac3c 9189 173e 6736 163e 5db7 553d
00000140: 2bcc f2be 3e34 85be a0e7 813c c022 083e
00000150: 9ad5 603e 9a65 283e d4c4 483e c3e3 5d3d
00000160: eb4e 403d 1209 ef3d dfd0 f73d c229 183d
00000170: f650 b73d 5166 423c 2b6a 64bc 5f79 b8bc
00000180: 76e9 873d e44b da3b ba49 ee3b e422 e0bd
00000190: 8d87 68be dd0d 8c3d fb22 9cbd 7696 03be
000001a0: 010c 9f3d ba66 0fbe 5535 5d3d 1332 89bd
000001b0: cde8 9a3d 3dd4 e83d 9f2d 9a3e e667 0c3d
000001c0: 6d5b 393e ff4b 37bd 79ea 1ebf 12ea 25bf
000001d0: de35 123d 539d 05be 8ab8 203d d0b8 87ba
000001e0: 6442 9d3c df85 13bd 9887 053d 2479 adbd
000001f0: 40ce 01be 6814 533c 74ee 353c 569d d5bc
00000200: 02c8 eb3d 2cd9 1d3d f550 993e 016b 723b
00000210: f376 b6bd e317 463e 70c5 243e 941e 6fbd
00000220: d57b b9bd 2e7c 9abe 2aae 4c3d 34f5 70bd
00000230: b1b0 a83d 7d02 e3bd 4107 f93d 2bcb 2fbe
00000240: 9fc7 263e 8a2c 753e 1921 033e 8433 db3b
00000250: 02bf f03d 95ce 563d 8da8 d2bd 40e8 41be
00000260: 77f1 adbd 8751 1cbf 475c f53d 80d8 4bbe
00000270: e79b b53d ce06 ff3d ae51 2e3e 9c1f 22be
00000280: 6f60 8a3e 8a76 8e3d aad2 2f3c 98b6 883d
00000290: 6680 e73d a997 123e ce2a 33be 65a2 733e
000002a0: 8dec 2b3d 6ced dbbd 0fe0 5ebd 8a14 153e
000002b0: 328b cc3d 788c a2bd c29a 2ebd ec84 b4bd
000002c0: 2ab0 d3bd 8712 84bc de5b 453e d303 65bd
000002d0: 4001 723d 181e 6abd da63 d13d e04c aa3d
000002e0: 7125 723e 1c46 a4bb 7900 933d 50f0 b3bc
000002f0: bf67 6ebd 7925 863d 022b 4ebd abe4 dd3d
00000300: 545d 3f3e ceaa eb3c 4245 e23d daf3 363e
00000310: 36ba 6b3e bb64 95bd 1714 5e3e b223 b93c
00000320: de34 b3b8 b9dc cdbb 50c7 fa3b 5a99 943c
00000330: 5db9 23bd 4c4e 88be 2d99 b7bd 8a7d 42be
00000340: 3e36 983e 4226 aa3e 2365 593e cbca c13d
00000350: 6edc 37be d456 7fbe 276c 33be 1db3 483d
00000360: 12da 1bbe 1f86 39be 565e 4a3d 7d6f 4bbe
00000370: 9bfc c7be a91e db3d 8547 4fbd 22dd 163d
00000380: 0674 9cbe 886e 4e3e 5397 153e 30ff 4d3e
00000390: 2c3e 963c a975 7a3d 937e 993e bb26 b83e
000003a0: ad34 0bbd ef33 3d3e ea80 863e 2117 273d
000003b0: 6f6c 8cbe c223 e5bd 66ed 49be 1342 c6bd
000003c0: 7cbe b03c e6a1 24be 3ff6 d03e d13a e73e
000003d0: fa49 a03b fe66 9dbc 4431 d2bc 2660 af3d
000003e0: b9fc 87bd 20a9 633d 9272 173e 10cb bbbd
000003f0: 1ea7 9cbb 8ce8 7c3d d55c a2bc 9a39 68bd
-0.020879328 -0.08319478 0.079574294 0.07270471 0.04666457 0.085194595 0.096830696 0.21647015
0.24759208 0.08346152 0.21829386 -0.12484103 0.16600576 0.16604064 0.177817 0.039334144
0.3467589 0.25626352 -0.080883816 -0.05151367 -0.09507213 0.058701675 -0.004915764 0.0671665
-0.12120288 -0.019770473 -0.04291463 -0.00555812 0.103229776 -0.0049689696 0.19817677 0.013727698
0.2717816 0.09182627 -0.07057696 0.093783855 0.01678658 0.15625532 -0.030847047 0.01620605
0.05932274 0.028474895 0.15176894 0.18949877 0.16872439 -0.03971163 0.12874682 0.12075056
0.13049996 -0.11800591 -0.0685609 -0.03704486 -0.009701056 0.078534864 0.19310325 0.109251276
0.11144073 0.060031097 0.13140063 -0.0888142 0.06776688 -0.07498252 0.09581815 0.09700296
0.014864848 -0.18174638 0.13642076 0.0004345687 -0.057737157 -0.022636943 0.15729225 0.05947656
0.011514775 -0.017614791 -0.20078592 0.064917624 0.021109318 0.14798571 0.1466919 0.052176822
-0.47421393 -0.2601642 0.015857518 0.13294506 0.21956483 0.16445008 0.19606334 0.05417229
0.046950262 0.11671652 0.12100386 0.0371492 0.08950989 0.011865214 -0.013941328 -0.022518812
0.06636326 0.006661879 0.0072719725 -0.10944155 -0.22707959 0.06838582 -0.076238595 -0.12850365
0.077659614 -0.14004031 0.05400594 -0.06699004 0.075639345 0.11368606 0.3011293 0.034278773
0.18101282 -0.04475021 -0.62076527 -0.6481029 0.035695903 -0.13048296 0.03923849 -0.0010354761
0.019196697 -0.03601634 0.032600015 -0.08470371 -0.12676334 0.012883283 0.011104215 -0.026076
0.11512758 0.03853719 0.29944578 0.0036990049 -0.089094065 0.1934505 0.16090941 -0.05837877
-0.09056822 -0.30172867 0.049970783 -0.058827594 0.08236826 -0.11084459 0.12159587 -0.17167346
0.16287087 0.23942772 0.12805595 0.0066894908 0.11755182 0.052443106 -0.10286055 -0.18936253
-0.084933214 -0.610619 0.11980491 -0.19906807 0.08867627 0.1245247 0.17023346 -0.1583237
0.27026698 0.06956203 0.010731379 0.06675452 0.11303787 0.14315666 -0.17496797 0.23792417
0.04197364 -0.10738644 -0.054412898 0.14558616 0.09987487 -0.079369485 -0.042628057 -0.08814415
-0.10336335 -0.016122116 0.19273326 -0.05591185 0.059083223 -0.057157606 0.10224123 0.08315444
0.23647095 -0.0050132405 0.071778245 -0.021965176 -0.05820441 0.06550116 -0.050333984 0.108346306
0.18687946 0.02876797 0.11048366 0.1786646 0.23020253 -0.072946034 0.21687351 0.022600029
-8.5452324e-05 -0.0062824157 0.0076531544 0.01813953 -0.039971698 -0.26622236 -0.08964763 -0.18993202
0.29728884 0.33232313 0.21229987 0.09462508 -0.17955181 -0.24935466 -0.17521726 0.04899894
-0.15219906 -0.1811757 0.049406372 -0.19866748 -0.3905991 0.10699207 -0.050605316 0.036831982
-0.3055727 0.20159352 0.14608507 0.20116878 0.018340193 0.061147366 0.2997938 0.3596705
-0.033985782 0.18476842 0.2627023 0.04079354 -0.27426478 -0.11188461 -0.19719467 -0.096805714
0.021575205 -0.16077384 0.4081287 0.4516206 0.004891631 -0.01921415 -0.025658257 0.08563261
-0.0664 0.055581212 0.14789799 -0.091695905 -0.004780664 0.06174521 -0.019819656 -0.056695558

fc1.bias f4 [32]
00000000: 5c1a f53d 3cc3 d83d 4df4 2bbc 9eec de3d
00000010: a1c4 ce3d 82f8 0a38 27f1 c4bc 247b f73c
00000020: 917d 9a3c 6720 343e cd52 a4bd 6ee1 0bbd
00000030: 604e 9f3d 5c91 f43d a620 d33d 7197 14bd
00000040: eb8d f03d 4f18 113d dff7 de3d f067 f8b9
00000050: bfec 803c 7694 7b3d 1582 a93c 70ce 073e
00000060: fc84 3bbc 18a8 a63d c4ac cb3c 1e3c 30bd
00000070: 335b 013e c16c 623d 5e3d 003d 149f c53d
0.11967918 0.10584113 -0.010495258 0.10884975 0.10096098 3.3133205e-05 -0.024040772 0.030210085
0.018858703 0.17590486 -0.080236055 -0.034150533 0.07778621 0.119417876 0.103089616 -0.03627724
0.11745819 0.035423573 0.108871214 -0.00047379686 0.01573789 0.06142088 0.02069191 0.13262343
-0.01144528 0.0813753 0.024862655 -0.043026082 0.12632446 0.055279497 0.031308524 0.09649482

fc2.weight f4 [16, 32]
00000000: 6837 f6bd e9bf c83e cf5d 95be 0fb4 a0be
00000010: b641 043e 523b 2d3e 464c 33bf cd05 d2bd
00000020: cbbd 853f 8c42 b2be 1c9c 213f af1a 86ba
00000030: 210c 0b3e 3173 3e3e 0673 c3be c20b 6ebf
00000040: cb22 d5be ac28 013d a60a cfbc ee34 b8bc
00000050: 9f51 cf3e e3dc 81bf 3a9c 5cbe 73af d4bd
00000060: a7bf 1ebe ebf0 503f f95c 933e d426 a23f
00000070: 671d 33bb 6771 663d 89c2 ba3e 8895 58bf
00000080: a6c7 483d ab96 b6bd 83bb 693e 872e 9b3d
00000090: eaef a63e fb3a af3e 42ec ef3d e4d1 a93d
000000a0: 7da4 9bbe 531f c43d 14e5 40be c76c a23e
000000b0: b4c6 4e3e f864 5f3e 5b44 473e 371a de3e
000000c0: 09ca 3a3e 8671 5c3e 6512 9a3e 9045 dd3d
000000d0: e170 3abe ae5e a63e dc45 26bd 865a d63d
000000e0: c938 383e 5b27 febe d490 f3bd ec37 0ebf
000000f0: 8eb1 2c3e 35e2 4abb 2846 2f3d 580a c23e
00000100: 8440 c23d 75a1 e13e a114 47be 013b e8be
00000110: 7047 403e 1504 65bd cbb7 28bf 310e ebbd
00000120: 9384 7d3f 8582 e2be 1a8a 313f f140 9d3d
00000130: 7894 463e 0803 0f3e 71ec d2be 3599 75bf
00000140: b958 16bf 5c3d 0fbd b600 c93d 2707 243e
00000150: dd6e db3e aec1 83bf 93dc 99be a9e2 d2bd
00000160: c5b4 bbbc 3d1e 633f ec36 b63e fbc3 983f
00000170: 4e9e 2bbe ae0c 7ebc 4eff ac3e 2806 65bf
00000180: 171c 4a3e fd16 8ebd 7737 223d 3cb6 2d3e
00000190: 1508 5e3e 7ab6 873e 1d5f cb3c ef95 e4bd
000001a0: f63a c4be 89db 263e 0e6f e0be f21f 943e
000001b0: 2bf5 e93c 76eb e33d 7074 73bd 6bbe 133f
000001c0: 2bb1 713d b5ff 0e3e 81b5 9b3e 55ba a03c
000001d0: d16b 3a3d 5a90 6c3e c8bb c93d 2b3b 833e
000001e0: 3ce9 5b3e 2142 ebbe e4bf 8fbe 6c32 10bf
000001f0: 11de 85bc 35db 623e ebb5 04bd 72af f73e
00000200: 855b 3b3e c4af 6d3e 4351 133e 7c77 923e
00000210: 0e13 d83b f6da 7c3e a972 c7b8 6879 803e
00000220: 68d8 0d3e 992b 13bc 061b a73e 07ac 4e3e
00000230: 9c6a 543e 8f25 4a3d c7ab 323e ab59 d7be
00000240: 0adb 973d 0b5d 913d a8af a73c 0b35 823e
00000250: 5dd1 723e 70c1 ebbd 6d75 523e 5d28 273d
00000260: 68d2 303e 96da 143e 3bf9 473e 10c6 493e
00000270: c1e6 a93e 349a 7f3e 0706 093d 48ee 57be
00000280: 0ec3 dbbc 7958 8fbd ab0b 823c 79ec 14be
00000290: bb64 3e3d fbf4 37be 32fd e8bd 7f82 01be
000002a0: 453d 7e3d d40c e6bc 7244 44be e3e0 0ebe
000002b0: e211 ebbd 5743 46be 86fa 34bc 100a 373d
000002c0: 19d4 71bd 10fe cfbd 843e 13bd 0a9e 32be
000002d0: 206f 08be e022 cbbc 0b43 f53d c82d b6bd
000002e0: ef89 613d 87d0 bdbd 0bc7 92bd 7885 44be
000002f0: 9e51 e33d adf9 083e ade3 f2bc db82 b73d
00000300: cb3c 6d3e e4da 5abd 7e85 373e 3af0 0dbe
00000310: 7d55 553d aae1 cc3d 284c f53d 920e 04be
00000320: 16e9 00bf 5dcd 35bc 86c3 01bf 6f1f 1f3e
00000330: 638c 303e bedb 083e 7e22 173e 23f2 033f
00000340: db59 d5ba d353 873e 42d5 b03e a6de e13d
00000350: 63d6 28be d39f e33d d6bc 703d b4b3 253e
00000360: bece 2c3e 0bbc d3be 3b39 96be df3e 26bf
00000370: 0309 41bc e66d f63d 6e2d 0dbe 485e 0d3e
00000380: 85d5 0f3e 4b64 0b3e 62b1 1c39 07c5 903d
00000390: 9ebd 5abc f8a7 4f3e 3147 ff3d de07 293e
000003a0: 0adc 0a3f 8ca7 0e3e 6f06 fb3e 5b11 61bd
000003b0: fbd1 e7bc 7779 02be c9f3 2d3e b11b 41bf
000003c0: e757 bd3d 3c88 cc3c 1184 4b3e 2fc9 7c3e
000003d0: acac 9b3e 62f6 a6bd ef58 083e f8fc 503e
000003e0: b92c 333d a4fe e83e ab25 913e 1451 163f
000003f0: 0d54 953b baeb 3f3e bfea bf3e 2bd5 b7be
-0.12022287 0.39208916 -0.29173133 -0.31387374 0.12915692 0.1691716 -0.7003826 -0.10255013
1.0448545 -0.34816396 0.6312883 -0.0010231341 0.13578846 0.1859863 -0.38173693 -0.9298669
-0.41628107 0.03153293 -0.025273632 -0.022486176 0.4049196 -1.0145534 -0.2154397 -0.10385027
-0.15502797 0.8161761 0.2878187 1.2668099 -0.0027330758 0.056260493 0.36476544 -0.84603167
0.049018525 -0.089154564 0.22825436 0.07577234 0.32604915 0.34224686 0.117149845 0.082919866
-0.30398932 0.09576287 -0.18837386 0.31723616 0.20192987 0.2181586 0.1945967 0.43379375
0.18241133 0.21527681 0.3009216 0.108042836 -0.18207122 0.3249411 -0.040593967 0.10466485
0.17990412 -0.496394 -0.11892858 -0.5555408 0.16864607 -0.0030957584 0.042791516 0.37898517
0.09484962 0.44068494 -0.19441463 -0.45357516 0.18777251 -0.055912096 -0.65905446 -0.11477316
0.9903042 -0.44240203 0.6935135 0.07678402 0.19392574 0.13966 -0.41196015 -0.959369
-0.5872913 -0.034970626 0.09814589 0.16018353 0.4285802 -1.0293481 -0.30051097 -0.10297138
-0.022913346 0.88718015 0.35588777 1.1934808 -0.16759607 -0.015505953 0.33788532 -0.8946252
0.19737278 -0.069379784 0.039603677 0.16964048 0.2168277 0.26506406 0.024825627 -0.1116141
-0.38326234 0.16294684 -0.43834728 0.28930622 0.028559288 0.11128895 -0.059437215 0.5771243
0.05900685 0.13964732 0.30411914 0.0196201 0.045512978 0.23101941 0.098502696 0.2563108
0.2147569 -0.4594889 -0.28076088 -0.5632694 -0.016341241 0.22153933 -0.032400053 0.48376042
0.1829663 0.2321158 0.14386468 0.28606784 0.0065940684 0.24692902 -9.5104166e-05 0.25092626
0.13852084 -0.008982562 0.32637805 0.2018281 0.20743793 0.049352225 0.1744834 -0.420606
0.07414825 0.07097825 0.020469502 0.25431094 0.23712678 -0.11511505 0.20552607 0.040809978
0.17267764 0.14536509 0.19528668 0.19704461 0.33183864 0.24961168 0.033453014 -0.21086991
-0.026826408 -0.06999297 0.015874704 -0.14543332 0.046482783 -0.17964546 -0.11376418 -0.12647437
0.06207015 -0.028082289 -0.19166735 -0.13952975 -0.1147802 -0.19361626 -0.011046058 0.04468733
-0.059040163 -0.101558805 -0.03594829 -0.174431 -0.13323641 -0.024796903 0.11975678 -0.08895451
0.055063184 -0.09268289 -0.07166871 -0.1919154 0.110995516 0.13376494 -0.02964958 0.089605056
0.23167722 -0.053431407 0.17922017 -0.1386117 0.05208348 0.100039795 0.11977416 -0.12896183
-0.5035566 -0.011096326 -0.5068897 0.15539335 0.17241053 0.13365075 0.14759251 0.51541346
-0.0016277389 0.2643114 0.34537703 0.11028795 -0.16488032 0.111144684 0.058773838 0.16181833
0.16875741 -0.41354403 -0.29340538 -0.64939684 -0.011781934 0.1203268 -0.13786861 0.13805497
0.14046295 0.13612477 0.000149434 0.0706883 -0.013350872 0.20278919 0.124647506 0.16506907
0.54242 0.13931102 0.49028346 -0.054948192 -0.028298369 -0.12741648 0.16987528 -0.7543288
0.09245282 0.024967305 0.19874598 0.2468612 0.30405176 -0.081524625 0.13315175 0.20409
0.043743823 0.45506775 0.2834905 0.58717465 0.004557139 0.18742266 0.37483785 -0.35904822

fc2.bias f4 [16]
00000000: 2796 143e 4bf1 d43d 500c e23d dcf7 053e
00000010: 2f84 793e 1fad 9b3d 8223 443e 0bc6 be3d
00000020: cb9a c5bc 4008 013d 74da 2a3e 2f9b 943d
00000030: cf90 f33a f277 543e 43d2 853d f691 b23d
0.14510404 0.103975855 0.11037505 0.13082832 0.2436683 0.076013796 0.1915417 0.093151174
-0.024121663 0.03150201 0.16684896 0.072561614 0.0018582585 0.2074888 0.06534245 0.08719246

fc3.weight f4 [4, 16]
00000000: a608 763f 689c 063b 70b1 913f 8875 473d
00000010: 69ab 873e 849e 44be f3a4 e1bd bec0 4d3e
00000020: 10a4 b13e d27b 1d3e bc6f 553e c461 88be
00000030: 7abb 123b c682 12be 36fa d2be f509 d73d
00000040: 5ad7 83bf 484e b83e cbab 6abf 4e34 673e
00000050: 8b16 523e e8ba 28be df72 923e 5bd4 d6bc
00000060: 1f73 103e 5f79 b83e 2688 afbd 0666 30bd
00000070: 8e6a c23e 6d98 373e a08f a53e ec12 993e
00000080: 7ae4 99be a50f 93be a1e1 90bd 3fae c1be
00000090: 5a9f e4be a85c 163d 49b9 d6be ea26 2abf
000000a0: 8b4b aebe c73e 1bbf 51bf 08bf 44e4 40bc
000000b0: d5e4 8fbe ff23 ccbe 356b 03bf 8120 2dbf
000000c0: 604d a5bd 0e8d d9be d2e5 39be dc8a 09bf
000000d0: 7f1d ddbe 5fe9 dcbd a23d d3be 9320 28bf
000000e0: 874a 02bf 7cd6 43bf e523 1dbf bab6 213e
000000f0: 660a a2be 6fa2 afbe 5bc7 b3be 9062 77be
0.96106946 0.0020540003 1.1382275 0.04869607 0.26497963 -0.19201094 -0.1101779 0.20093057
0.34695482 0.15379265 0.20843405 -0.2663709 0.0022389577 -0.14307699 -0.4120652 0.10499946
-1.0300095 0.35997224 -0.91668385 0.22578546 0.20516412 -0.16477549 0.28603265 -0.026224306
0.14106415 0.360301 -0.0857089 -0.043066047 0.3797192 0.1792924 0.3233614 0.2989725
-0.30057126 -0.28722873 -0.07074285 -0.37828252 -0.44652826 0.036709458 -0.41938236 -0.6646563
-0.3404201 -0.60642666 -0.53416926 -0.011773173 -0.28104272 -0.39871213 -0.5133546 -0.6762772
-0.08071399 -0.4249043 -0.18154076 -0.5372751 -0.43186566 -0.107866995 -0.4125796 -0.65674704
-0.5089497 -0.7649915 -0.61382896 0.15792361 -0.31648558 -0.34303614 -0.35113034 -0.24158692

fc3.bias f4 [4]
00000000: f1a8 e7bd b947 b4bd c1f3 92be f27b f1bd
-0.1131152 -0.088027425 -0.28701594 -0.11791219
